Influencer Model:
Model: "sequential"
_________________________________________________________________
 Layer (type)                Output Shape              Param #   
=================================================================
 dense (Dense)               (None, 512)               12800     
                                                                 
 dropout (Dropout)           (None, 512)               0         
                                                                 
 dense_1 (Dense)             (None, 128)               65664     
                                                                 
 dropout_1 (Dropout)         (None, 128)               0         
                                                                 
 dense_2 (Dense)             (None, 64)                8256      
                                                                 
 dense_3 (Dense)             (None, 64)                4160      
                                                                 
=================================================================
Total params: 90,880
Trainable params: 90,880
Non-trainable params: 0
_________________________________________________________________

Owner Model:
Model: "sequential_1"
_________________________________________________________________
 Layer (type)                Output Shape              Param #   
=================================================================
 dense_4 (Dense)             (None, 512)               12288     
                                                                 
 dropout_2 (Dropout)         (None, 512)               0         
                                                                 
 dense_5 (Dense)             (None, 256)               131328    
                                                                 
 dropout_3 (Dropout)         (None, 256)               0         
                                                                 
 dense_6 (Dense)             (None, 128)               32896     
                                                                 
 dense_7 (Dense)             (None, 64)                8256      
                                                                 
=================================================================
Total params: 184,768
Trainable params: 184,768
Non-trainable params: 0
_________________________________________________________________

Full Model:
Model: "model"
__________________________________________________________________________________________________
 Layer (type)                   Output Shape         Param #     Connected to                     
==================================================================================================
 inf_feature (InputLayer)       [(None, 24)]         0           []                               
                                                                                                  
 own_feature (InputLayer)       [(None, 23)]         0           []                               
                                                                                                  
 sequential (Sequential)        (None, 64)           90880       ['inf_feature[0][0]']            
                                                                                                  
 sequential_1 (Sequential)      (None, 64)           184768      ['own_feature[0][0]']            
                                                                                                  
 tf.math.l2_normalize (TFOpLamb  (None, 64)          0           ['sequential[0][0]']             
 da)                                                                                              
                                                                                                  
 tf.math.l2_normalize_1 (TFOpLa  (None, 64)          0           ['sequential_1[0][0]']           
 mbda)                                                                                            
                                                                                                  
 dot (Dot)                      (None, 1)            0           ['tf.math.l2_normalize[0][0]',   
                                                                  'tf.math.l2_normalize_1[0][0]'] 
                                                                                                  
==================================================================================================
Total params: 275,648
Trainable params: 275,648
Non-trainable params: 0
…
