Influencer Model:
Model: "sequential_2"
_________________________________________________________________
 Layer (type)                Output Shape              Param #   
=================================================================
 dense_8 (Dense)             (None, 512)               12800     
                                                                 
 dropout_4 (Dropout)         (None, 512)               0         
                                                                 
 dense_9 (Dense)             (None, 128)               65664     
                                                                 
 dropout_5 (Dropout)         (None, 128)               0         
                                                                 
 dense_10 (Dense)            (None, 64)                8256      
                                                                 
 dense_11 (Dense)            (None, 64)                4160      
                                                                 
=================================================================
Total params: 90,880
Trainable params: 90,880
Non-trainable params: 0
_________________________________________________________________

Owner Model:
Model: "sequential_3"
_________________________________________________________________
 Layer (type)                Output Shape              Param #   
=================================================================
 dense_12 (Dense)            (None, 512)               12288     
                                                                 
 dropout_6 (Dropout)         (None, 512)               0         
                                                                 
 dense_13 (Dense)            (None, 256)               131328    
                                                                 
 dropout_7 (Dropout)         (None, 256)               0         
                                                                 
 dense_14 (Dense)            (None, 128)               32896     
                                                                 
 dense_15 (Dense)            (None, 64)                8256      
                                                                 
=================================================================
Total params: 184,768
Trainable params: 184,768
Non-trainable params: 0
_________________________________________________________________

Full Model:
Model: "model_1"
__________________________________________________________________________________________________
 Layer (type)                   Output Shape         Param #     Connected to                     
==================================================================================================
 inf_feature (InputLayer)       [(None, 24)]         0           []                               
                                                                                                  
 own_feature (InputLayer)       [(None, 23)]         0           []                               
                                                                                                  
 sequential_2 (Sequential)      (None, 64)           90880       ['inf_feature[0][0]']            
                                                                                                  
 sequential_3 (Sequential)      (None, 64)           184768      ['own_feature[0][0]']            
                                                                                                  
 tf.math.l2_normalize_2 (TFOpLa  (None, 64)          0           ['sequential_2[0][0]']           
 mbda)                                                                                            
                                                                                                  
 tf.math.l2_normalize_3 (TFOpLa  (None, 64)          0           ['sequential_3[0][0]']           
 mbda)                                                                                            
                                                                                                  
 dot_1 (Dot)                    (None, 1)            0           ['tf.math.l2_normalize_2[0][0]', 
                                                                  'tf.math.l2_normalize_3[0][0]'] 
                                                                                                  
==================================================================================================
Total params: 275,648
Trainable params: 275,648
Non-trainable params: 0
…
